host/data.pth (torch, 6890 bytes, 6 tensors)

l1.weight f4 [8, 82]
00000000: 1be4 35bc a31f 2b3e ed97 b43e 495e 0cbf
00000010: 1cb5 c83e 9e5e 19be 6704 8bbe 92f4 3bbc
00000020: 5b5c 2a3f bba3 0e3f a1b3 63bb 5d9d af3e
00000030: 1730 e93e 8921 c93e 20bd 59be 3a6a 5e3e
00000040: 30a2 1e3f 957d 40be 0cf7 c53e e5cc 8e3e
00000050: c688 0f3f 3b27 d33e fba7 d03e 4696 00be
00000060: aec8 9fbd f8aa ddbd 0ee0 8a3d 1d9b 4fbe
00000070: c6e5 083f 07df 053f 3e12 c8be 352f d2be
00000080: 4912 c8be c012 c8be 70d2 c53d dbeb d13d
00000090: b042 80be eb7a d8bd 7f3c 093f 1915 14bf
000000a0: 77e0 eb3e 850d 2ebf da6b f43d 6760 03bf
000000b0: b19f 823e 5ee0 41bd ec3e 213e a73d ca3e
000000c0: 015f 173d 6688 d93e 7e6c 89be 9e62 b9bd
000000d0: 5af8 0f3f 7890 07bf 86e4 e53e b3fd 69be
000000e0: ea8c d03e 6b4d dc3e ab79 0dbf aa3d c23e
000000f0: b0d6 2b3f a88a dc3d 6e44 c03e aca3 abbe
00000100: 8c39 2dbe 96de 663f 5a2a e93e a9fc 38be
00000110: 1311 12bf 5dbe a23c 6452 bc3c c699 c83e
00000120: 22fc 0dbf 9d98 103f 4b73 353f 495a 89be
00000130: eccd a7be f4dc 0e3f 2338 dbbd 848b f13e
00000140: d9dd 3e3e 4009 863e 8c80 253f 024a ba3e
00000150: b3b5 fcbe b00d 383f 91ff aa3e d1df 913e
00000160: d9de a7be d00a efbd 8c01 363f ae85 49bf
00000170: ac3b 88bd 7d69 94be 1ffc aebe c2b0 d13e
00000180: 43c8 c43e 7fd5 91be fc3e 223f 57a0 1ebe
00000190: ce2b ba3e a7a7 de3e 6514 823e 878d 0c3f
000001a0: ad15 b03e 11c2 0a3e dbb0 6bbe 4ade 86bd
000001b0: ce7d 473e 5e0a 86bd 0181 49bf 777f 053f
000001c0: 7582 9dbe 3fc2 0c3f 9891 58be 76f7 1cbe
000001d0: a61d 293f ee2a 9a3e eb0a b73e 3905 b43e
000001e0: 90ab 403f 018f 2ebf 8852 053f d0a4 e9be
000001f0: 37aa ecbe 1df9 1f3f d775 c03e 864b f53e
00000200: 35dc 1f3f 5f57 e1be f309 85bd d808 2d3f
00000210: c54b 04bf 56de 2f3e d16f cb3e bc76 f2be
00000220: b834 d6be 35c2 903e 700d 01bf 1206 fabe
00000230: 0b39 703e 7874 e0bd a0e1 443f 983b 973e
00000240: 30f7 193f 9911 15bf ccd0 06be 50b7 673f
00000250: d989 4f3e c982 b8be 3065 9b3f 1e38 203f
00000260: 2da6 d9bd efa8 8b3e dfd1 45bf 12c4 a83e
00000270: 99d7 353f ff5d f5be 1bff 2fbf 3635 273f
00000280: c919 8e3e 2503 013f 2f1e 473e 70aa b73d
00000290: e03a 8b3b 9c93 ff3e da61 97be 6e4f 843f
000002a0: f8a6 803e 3a02 ef3e d02e 8f3e 8da7 403e
000002b0: 3ca5 91bd 75c7 97be baba d83d 0f55 44be
000002c0: 4727 10bf 9800 3bbe 9474 013f 4fa8 81be
000002d0: c635 7f3e b04f d93e 31b6 cf3d 01b0 bcbe
000002e0: 5d29 db3e c4f5 c8be c96d 0f3e c9ef f53e
000002f0: 5988 9b3e 17f0 5c3d 1e03 e5be 4d7c d33e
00000300: 72a6 16be c8f0 1dbd 0417 173f 012a 213f
00000310: 823c 0a3f c3b3 053f 3985 363f eca5 9f3e
00000320: 8670 003f ec07 fc3e 151b 9ebd 66e8 163f
00000330: 15e6 2bbd 7129 eb3e 7b76 12be 1673 573f
00000340: ac3e e8be b523 3dbe babf 653f 2642 82be
00000350: f328 0f3f be5a c63d 4936 1bbd 2ef5 b53e
00000360: fc37 40be 2ea3 a73d e750 16bf 8514 233f
00000370: fc18 efbe 9a2d 1cbf c12b e33e 0097 323d
00000380: b623 0fbf 7ce2 b4be d88b cc3e 8e99 77bd
00000390: 41a7 c33e 2fb3 a63c 9135 a8be 2859 d93e
000003a0: 2590 ba3e 1ae4 593d 203d 8e3e 3d22 493e
000003b0: 3e94 27be 55e6 6d3e fb5e 183f be33 0fbd
000003c0: 2807 a6bc 3710 213e bcbe f2be 0d10 1abe
000003d0: 8d70 cb3e 732f 073e e3b4 adbe b7a5 3a3f
000003e0: f6ed d73e 8268 443f aca5 b73e 9a15 b03d
000003f0: e43a a1bd 98ea b1bc bc3f 9cbe c771 c1be
-0.011101748 0.16711287 0.3527216 -0.5483137 0.39200675 -0.149775 -0.27151796 -0.011471884
0.66547173 0.5571858 -0.0034744518 0.34299746 0.45544502 0.39283398 -0.21263552 0.2172021
0.6196623 -0.18797906 0.38665044 0.27890697 0.56068075 0.41240868 0.4075316 -0.12557325
-0.078019485 -0.10823625 0.06781016 -0.20274015 0.53475606 0.5229344 -0.39076418 -0.4105164
-0.3907645 -0.39076805 0.096592784 0.10250064 -0.2505088 -0.1057032 0.53607935 -0.5784469
0.4606969 -0.6798938 0.119346336 -0.51318973 0.2551246 -0.047333114 0.15746659 0.39500162
0.036955837 0.42486876 -0.26840585 -0.09052013 0.5623833 -0.52954817 0.44900912 -0.22850685
0.4073251 0.43027815 -0.55263776 0.3793767 0.6712446 0.10768634 0.37552208 -0.3352331
-0.16916484 0.9018339 0.45540124 -0.18065132 -0.57057303 0.019866163 0.022988506 0.3917982
-0.5546285 0.5648287 0.7087905 -0.26826695 -0.32774293 0.558059 -0.107040666 0.47176754
0.18639316 0.26178932 0.6464927 0.36384588 -0.49357376 0.71895885 0.33398107 0.2849107
-0.32787207 -0.11671984 0.7109611 -0.78719604 -0.066520065 -0.2898673 -0.34176728 0.40955168
0.38434038 -0.28483197 0.63377357 -0.15490852 0.36361545 0.43487284 0.25406185 0.54903454
0.34391537 0.13550593 -0.23016684 -0.06585367 0.19481584 -0.06544946 -0.7871247 0.5214762
-0.30763593 0.54983896 -0.2114929 -0.15328774 0.66060865 0.30110878 0.35750517 0.35160235
0.75261784 -0.68186957 0.5207906 -0.45633554 -0.46223614 0.6248949 0.37589905 0.47909182
0.62445384 -0.4401197 -0.06496038 0.6759162 -0.51678115 0.17174658 0.39733747 -0.47356212
-0.41837096 0.28273168 -0.5041113 -0.48832756 0.2345926 -0.10959715 0.76906776 0.29537654
0.60142803 -0.58229977 -0.13165587 0.9051409 0.20267428 -0.3603728 1.2140255 0.6258563
-0.10627399 0.27277324 -0.7727336 0.3296209 0.710321 -0.47923276 -0.68748635 0.6531557
0.27754048 0.50395423 0.19445108 0.08968055 0.004248962 0.49917305 -0.29566842 1.033674
0.25127387 0.46681386 0.27965403 0.18813916 -0.07111594 -0.2964436 0.1058249 -0.19173072
-0.5630993 -0.18261945 0.5056851 -0.25323722 0.24922857 0.4244361 0.10142172 -0.3685303
0.42804995 -0.39250004 0.14006723 0.48034504 0.30377463 0.053939905 -0.4472894 0.4130577
-0.14711931 -0.038559705 0.59019494 0.6295472 0.5399858 0.5222742 0.7129703 0.31181276
0.501717 0.49224794 -0.07720009 0.5894836 -0.04196747 0.45930055 -0.14303009 0.8415998
-0.45360315 -0.18470652 0.89745677 -0.25441092 0.5592186 0.096852764 -0.037893567 0.3553862
-0.18771356 0.08185421 -0.587172 0.63703185 -0.4669875 -0.6100708 0.4436932 0.043601036
-0.55913866 -0.35329044 0.39950442 -0.060449176 0.38213542 0.020349113 -0.32853368 0.42450833
0.364381 0.05319605 0.2778101 0.19641967 -0.16365144 0.23232396 0.5951993 -0.034961455
-0.020267084 0.15728842 -0.47411144 -0.15045185 0.39734307 0.13201694 -0.33927068 0.7290911
0.42173737 0.76721966 0.35868585 0.0859787 -0.078725606 -0.021718308 -0.30517375 -0.37782118

l1.bias f4 [8]
00000000: 6d19 c83e 8a83 493f 1787 543f 4f6a c13e
00000010: 5288 c83e 0a4d 633f 1510 423f c169 5f3f
0.39081898 0.7871634 0.8301863 0.3777642 0.39166504 0.8878943 0.7580579 0.8727074

l2.weight f4 [8, 8]
00000000: f50e 8f3f 9486 c43f 33cd 8a3e 703f 45bf
00000010: 65b2 94be a416 ecbe 10b9 263f 09a5 c33f
00000020: a365 443f d8b6 36bf c162 2dbf a7ce 543f
00000030: 9e61 9d3f 4cc6 903f 4157 02bf a9e8 8a3f
00000040: a8c0 d83d 3bb4 b4be 2e6f b0be 1048 45be
00000050: 4ae4 4a3e 7b87 a8be ace1 92be 7f75 a83e
00000060: cca1 51bf cdc8 913f b3c0 873f 529c ae3b
00000070: bf73 c9be 4c05 ce3f 41de 69be 3470 b0bf
00000080: b2e8 4f3e dd83 87be fc66 84bd 05d5 30be
00000090: d058 acbe 3077 bdbd 6bfd 55be fa2b 0c3e
000000a0: fd95 83bf f1c8 0c3f 7aa6 a63f 6cc7 903f
000000b0: 1b2a c5bd b545 1fbf 9dba ad3f c6ef 24be
000000c0: ffe9 a73f 251f ae3e 35fb 713f 3291 973f
000000d0: 9ebf aa3f 3aa8 45bf afaa dc3c 4f4c b1be
000000e0: b41d 40be e6ba 8fbf c950 553f a9e7 afbe
000000f0: 3282 45be e9fc b33e e645 bd3f 4eae c73f
1.117644 1.535357 0.2710968 -0.7704992 -0.29042354 -0.46111023 0.6512613 1.528474
0.76717585 -0.7137275 -0.6772881 0.83127826 1.2295415 1.1310515 -0.5091439 1.0852252
0.10583621 -0.35293755 -0.34459823 -0.19265771 0.19813648 -0.32915863 -0.286878 0.32902142
-0.8188751 1.1389405 1.0605682 0.0053286934 -0.3934612 1.6095366 -0.2283869 -1.3784242
0.2030361 -0.2646779 -0.06464955 -0.1726876 -0.3366151 -0.09251249 -0.20897453 0.1368865
-1.0280148 0.5499411 1.3019555 1.1310859 -0.096271716 -0.6221574 1.3572575 -0.16107091
1.3118285 0.34008136 0.94523937 1.1841185 1.3339727 -0.7720982 0.026936857 -0.3462853
-0.18761331 -1.1228912 0.83326393 -0.3435643 -0.19287947 0.35153893 1.4786956 1.5600069

l2.bias f4 [8]
00000000: cb1f 1e3f 6647 4c3e 7940 8fbe a3f3 833f
00000010: 90be 9abe 3efd 093e 9198 a1be 912f eb3e
0.6176726 0.19949111 -0.27978876 1.0308727 -0.30223513 0.1347551 -0.3156171 0.45934728

l3.weight f4 [12, 8]
00000000: a279 b9be 64ae acbf 1d00 56be ad6b b13e
00000010: 6c8e 6dbe 05e3 033f 28d4 20be a6a8 72be
00000020: c273 353f dd44 ebbf 4947 853e 77aa 363d
00000030: bcb8 e3bd 6d12 9bbf 11a8 f63e 794c 65bf
00000040: c474 ee3e 3c1d 1b3f 465d acbe 6453 903e
00000050: 9450 92be 5bb4 c3bf 9c10 89bf 4411 d1bf
00000060: ab3b 99bf c365 933d dc41 63be c193 48bf
00000070: c030 ac3c 9748 5a3e 0461 863e fa87 093f
00000080: c78b be3d 06ad 883e 7afe 8fbe c677 47bf
00000090: b188 903e 87be ebbf 6658 d9be b842 8c3f
000000a0: 8cf6 cd3e ed03 bfbf d35a 833e 5fcb 50bf
000000b0: ec5e d13d fd3c c43e ed6b 47bf 8164 6d3f
000000c0: 9f9b f23e cfea 1c3c f82e d0bd 35b7 bfbf
000000d0: 98b1 763d b581 a9bf 0375 1a3f 520b 91be
000000e0: e946 a5bf 75fe 863f 00a9 61bb 0607 43bf
000000f0: 030f a43e f13f 8ebf 7712 1a3f f325 18bf
00000100: 5bbe a0bf 9e8a 04bd 325c 103e 457d 853e
00000110: 0f27 8a3e a5de f33c 9d09 093f a9a4 cabf
00000120: 684e c2bf 4ad1 a43e ba11 4e3e d5f5 383f
00000130: a672 503e 3ed6 8ebf a323 85bf c9a8 fe3e
00000140: 3d37 a43e a93d 92bf f64a 333e a694 8e3f
00000150: 4573 893e 6b50 3cbe a4c4 01c0 8b46 84bf
00000160: 3a5d 903d 5d29 50bf 49e4 903e 6210 78bf
00000170: 3ad7 95be 0b4a b73e c6c0 343f ffe7 40bf
-0.3622561 -1.349072 -0.2089848 0.34652463 -0.23198861 0.5151828 -0.15705931 -0.23697147
0.7087976 -1.838039 0.2603095 0.04459616 -0.1111922 -1.2114998 0.481751 -0.89569813
0.4657346 0.60591483 -0.33664912 0.28188622 -0.285771 -1.5289415 -1.0708194 -1.6333394
-1.1971334 0.07197144 -0.22193092 -0.78350455 0.02101934 0.21316753 0.26245892 0.5372311
0.09304004 0.26694506 -0.28123838 -0.77917135 0.28229287 -1.8417519 -0.42450255 1.0957861
0.40227163 -1.4923073 0.2565523 -0.8156032 0.10223183 0.3832778 -0.77899057 0.9273148
0.47384354 0.009577467 -0.101652086 -1.4977785 0.06022796 -1.3242708 0.60334796 -0.2832895
-1.2912265 1.0546404 -0.0034433007 -0.7618259 0.32042703 -1.1113263 0.60184425 -0.59432906
-1.2558092 -0.03235876 0.1409767 0.26072136 0.26982924 0.029769251 0.53530294 -1.58315
-1.5180178 0.32190925 0.2012395 0.7225011 0.20356235 -1.1159132 -1.04015 0.49738148
0.32073393 -1.1425067 0.17509064 1.1139114 0.26845756 -0.18390052 -2.027627 -1.0334028
0.070490316 -0.81313115 0.28299168 -0.969 -0.29265767 0.35798678 0.7060665 -0.75354

l3.bias f4 [12]
00000000: 150e fabd 35f0 94bd e8f3 05bd 791f fabe
00000010: ab11 db3d 8a8b 023e 45fd d3be 2c70 983e
00000020: c1cc b5bd 34a3 953e a1bd 723e 71c3 fdbe
-0.12209717 -0.07272378 -0.03270331 -0.48852137 0.10696729 0.12748542 -0.41404167 0.2977308
-0.08876944 0.29226077 0.2370515 -0.49563172
